recsys-streaming-ml/.model_repository/DeepFM/1/model.pt (torch, 59376 bytes, 22 tensors)

weight f4 [100, 8]
0	0x3f6df0b1	0.9294539
1	0xbf1ee8a3	-0.62073725
2	0x3fb256e5	1.3932768
3	0xbf9c0006	-1.2187507
4	0xbf53ed63	-0.827841
5	0x3fbf5be9	1.4949924
6	0x3f1bc95b	0.6085412
7	0x3f248b12	0.64274704
8	0xbf862adc	-1.048183
9	0x3ed6b096	0.419316
10	0xbead1a9c	-0.33809364
11	0xbd4d6203	-0.0501423
12	0x40193fad	2.3945115
13	0x3ee6cf68	0.45080113
14	0xbfb4854b	-1.4103178
15	0x3e3eaf47	0.1862155
16	0x3ef6d4ca	0.4820922
17	0x3eed7c03	0.46383676
18	0xbfbf2982	-1.4934542
19	0x3e0efd78	0.13963878
20	0xbc68ea79	-0.014216059
21	0x3f470313	0.77739066
22	0xbf8a7742	-1.0817645
23	0xbf459431	-0.7717925
24	0x3ff30527	1.8985947
25	0x3ed09d6c	0.40745103
26	0xbf3ff692	-0.7498561
27	0x3f1c8d27	0.6115288
28	0xbd25e0d9	-0.040497635
29	0xbff4b965	-1.9119078
30	0xbec27ff7	-0.37988254
31	0xbf1e5c11	-0.6185923
32	0x3ebd0154	0.36915076
33	0xbf8c446f	-1.0958384
34	0xbfa5eea5	-1.2963454
35	0xbee3ab64	-0.44466698
36	0x3f397ea4	0.72458863
37	0x3e6273f9	0.22114553
38	0xbbeb2117	-0.0071755755
39	0x3e7f8c6d	0.24955912
40	0xbfc255b7	-1.5182408
41	0x3d438cf3	0.04774184
42	0x3eb35a0e	0.35029644
43	0xbe3b23e6	-0.18275413
44	0xbf6d15c2	-0.92611325
45	0xbe9a80f9	-0.30176523
46	0x3ff30dfe	1.8988645
47	0x3f6c7f38	0.9238162
48	0xbeff7eec	-0.4990152
49	0xbecaaa82	-0.39583212
50	0x3f1c6377	0.6108927
51	0xbef13797	-0.47112724
52	0xbf938432	-1.1524718
53	0xc008474d	-2.1293519
54	0x3e9fe79e	0.31231397
55	0x3f97b7c4	1.1852956
56	0xbf47ba44	-0.78018594
57	0x3c0955c5	0.008382265
58	0x3c07638f	0.008263483
59	0x3fa10662	1.2580073
60	0xbeb4155c	-0.35172546
61	0x3ee96f9d	0.45592967
62	0x3ecd5122	0.40100962
63	0x3e3eea66	0.18644103
64	0xbf06bbcb	-0.526303
65	0x3f282147	0.6567578
66	0xbf8867df	-1.0656699
67	0xbec3aac2	-0.38216215
68	0xbfbc689e	-1.4719427
69	0xbf213b36	-0.62980974
70	0xbe6e3ce0	-0.2326541
71	0x3ed86709	0.4226611
72	0x3daddd13	0.08489432
73	0x3ee6f15a	0.45106012
74	0x3fa4aed4	1.2865853
75	0x3e55325d	0.20819993
76	0xbced29f4	-0.028950669
77	0xbe41b2ce	-0.18915865
78	0xbc66993d	-0.014074621
79	0xbd80cb11	-0.06288732
80	0xbf3345d1	-0.70028406
81	0xbc7f77a0	-0.015592486
82	0x3e080b99	0.13285674
83	0x3fd1889f	1.6369818
84	0x3ef1bee5	0.47215953
85	0x3eb4b6d0	0.35295725
86	0xbeb7c951	-0.3589578
87	0xbdc7997b	-0.09746071
88	0xbf0c0431	-0.54693896
89	0x3ea6e231	0.32594445
90	0x3f58bc77	0.84662575
91	0x3f903487	1.126603
92	0x3f9bb4fa	1.2164605
93	0x3f2e4eb5	0.6808885
94	0x3db9fdbc	0.09081599
95	0x3f635d29	0.88814026
96	0x3f7f95e1	0.9983807
97	0xbef0b3a0	-0.47012043
98	0xbf28a549	-0.65877205
99	0x3f06587a	0.52478755
100	0x3ed44219	0.41456679
101	0xbe7ff409	-0.24995436
102	0x3fd9e40c	1.7022719
103	0x3f266de8	0.65011454
104	0xc0065cc2	-2.0994115
105	0xbef062a3	-0.46950254
106	0x3f47b6de	0.7801341
107	0x3d9e9b2c	0.077444404
108	0x3f382d55	0.7194417
109	0x3e8617b1	0.2618995
110	0xbea6e811	-0.32598928
111	0xbec195f6	-0.37809724
112	0xbf5796bc	-0.8421438
113	0x3f9f9adb	1.2469133
114	0x3f87b54c	1.0602202
115	0x3f68de9d	0.9096468
116	0x3fa41edf	1.2821921
117	0xc0014ed8	-2.0204372
118	0xbfb0e6aa	-1.3820393
119	0x3f1deccb	0.6168944
120	0xbf40d1a0	-0.7531986
121	0xbf83cb48	-1.0296412
122	0x3f613d90	0.8798456
123	0xbf4ea6f6	-0.8072351
124	0xbfe8cc69	-1.8187381
125	0x3f26978e	0.65075004
126	0x3f13eb28	0.57780695
127	0xbf3e3fd6	-0.74316156
128	0xbf382446	-0.7193035
129	0x3f85e064	1.0459104
130	0x3ec01e91	0.3752332
131	0x3f21a6f4	0.63145375
132	0xbfb6a46a	-1.4268925
133	0x3fb3328d	1.3999802
134	0xbe31adac	-0.17351407
135	0x3f808a5f	1.0042228
136	0xbff41d63	-1.9071468
137	0x3f823e7a	1.0175316
138	0xbfe0b49c	-1.7555118
139	0x400b8311	2.1798747
140	0xbb868e53	-0.004106322
141	0x3f7c5473	0.9856636
142	0x3f185f4e	0.59520423
143	0xbf37945d	-0.7171076
144	0x3fb50e11	1.4144918
145	0x3f64ced4	0.89378095
146	0x3f4ff385	0.81230956
147	0x3ed1dd3b	0.40989098
148	0xbe20cfe6	-0.15704307
149	0xbf05f346	-0.5232433
150	0x3e185e08	0.1487962
151	0xbfa4be2c	-1.2870536
152	0x3f67e153	0.9057819
153	0xbf1efc54	-0.6210377
154	0xbe37a78f	-0.17935012
155	0xbfdade22	-1.709904
156	0xbe0b44b0	-0.13600421
157	0x3f0fd0b4	0.5617783
158	0x3f8448ec	1.0334754
159	0x3fe8a1b3	1.8174347
160	0x3e74bf4d	0.239011
161	0x3f8cd369	1.1002017
162	0xbebac02b	-0.36474738
163	0x3f189e3d	0.5961645
164	0x3ef81110	0.48450518
165	0xc0170922	-2.3599324
166	0x3f6c5ee1	0.92332274
167	0x3eaf0a73	0.3418766
168	0xbfb7a288	-1.4346476
169	0x40113a2d	2.2691758
170	0x400dd45e	2.2160869
171	0xbf79fc4c	-0.976506
172	0x3f6fe80c	0.9371345
173	0xbebe1223	-0.37123212
174	0x400a84e5	2.1643612
175	0xbea9b588	-0.3314631
176	0x3f1ddb2c	0.61662555
177	0xbe6cea47	-0.23136245
178	0xbfd00df5	-1.6254259
179	0xbeaa933e	-0.33315462
180	0xbf974011	-1.1816427
181	0x3cace421	0.021104874
182	0xbefd4b5a	-0.4947155
183	0x3fd015a3	1.6256603
184	0xbf73bc0d	-0.9520882
185	0xbf5b7be0	-0.85735893
186	0x3f7a0667	0.9766602
187	0xbf7f8aff	-0.99821466
188	0xbeff7569	-0.49894264
189	0xbfe778b4	-1.8083711
190	0x3e5b1f59	0.21398677
191	0x3d4347be	0.04767584
192	0x3a895245	0.0010476789
193	0x3ebbf24d	0.36708298
194	0x3e963cb7	0.29343197
195	0x3fde76b5	1.7379977
196	0xbe8d03ba	-0.27541906
197	0x3f4091cc	0.7522247
198	0xbf0e7b6a	-0.55657065
199	0xbf402617	-0.7505812
200	0x3f839ba0	1.0281868
201	0xbf347579	-0.7049175
202	0x3f849b83	1.0359958
203	0xbf59bc11	-0.8505259
204	0x3f09bc7b	0.53803223
205	0x3fdad98d	1.7097641
206	0xbf11fe63	-0.5702879
207	0x3f3b492b	0.7315852
208	0xbf10fb95	-0.56633884
209	0xbf438de8	-0.76388407
210	0xbfae3b73	-1.3611892
211	0xbf538819	-0.82629544
212	0xbf1320e5	-0.5747207
213	0x3f14b11b	0.5808274
214	0xbf5ab384	-0.8543017
215	0xbfb93448	-1.446908
216	0xbf2fd4bd	-0.6868399
217	0x3f620530	0.88289165
218	0x3fbc746c	1.4723029
219	0x3ce31702	0.027720932
220	0x3e4a07a3	0.19729476
221	0xbcb0a076	-0.021560889
222	0xbf25ab6b	-0.6471469
223	0xbdf5b6eb	-0.119977795
224	0x3f833497	1.0250424
225	0x3f46ca6a	0.7765261
226	0x4015bbdf	2.3395917
227	0xbf660f6f	-0.898673
228	0xbd60a306	-0.05484297
229	0xbf78be64	-0.97165513
230	0xbeb519fe	-0.35371393
231	0x3e0597b6	0.13046154
232	0x3e058839	0.13040246
233	0xbf602904	-0.87562585
234	0x402a112e	2.6572986
235	0xbfb484bf	-1.4103011
236	0xbfaa02da	-1.328212
237	0xbdb86a78	-0.09004682
238	0x3f362bca	0.71160567
239	0x3e23cf61	0.15997078
240	0x3f782e89	0.96946007
241	0x3ebbe09a	0.36694795
242	0xbf33001e	-0.69922054
243	0x3f3bdbb8	0.7338214
244	0x3d0bb6f5	0.03411003
245	0xbb1faa2f	-0.0024362912
246	0x3fe2888a	1.7697918
247	0xbfd5947d	-1.668594
248	0x3f66d873	0.90174025
249	0x3f586d30	0.84541607
250	0xbd3a8c05	-0.04554369
251	0xbf960cbc	-1.1722636
252	0xbf240ed6	-0.6408514
253	0xbeb9e1b7	-0.3630502
254	0xbfb730e3	-1.4311794
255	0xbee92845	-0.45538536

weight f4 [100, 8]
0	0xbcf21867	-0.029552652
1	0xbeee1fd1	-0.4650865
2	0x3e0f6f6c	0.14007348
3	0xbe7d1a01	-0.24716951
4	0x3e69b5dd	0.22823282
5	0xbf812721	-1.0090066
6	0x3ea00e52	0.31260926
7	0x3e0db272	0.13837603
8	0x3f56af30	0.83861065
9	0xbccdda5e	-0.02512854
10	0xbf8604a6	-1.0470169
11	0x3da0e0cd	0.07855377
12	0xbf8db48c	-1.1070724
13	0xbd7d9398	-0.061908334
14	0x3fd3c96e	1.6545846
15	0x3efa4e24	0.48887742
16	0x3fb547db	1.4162554
17	0xbf8355db	-1.0260576
18	0x3f1fc790	0.62413883
19	0x3e03eb65	0.12882765
20	0x3f0f3987	0.55947155
21	0xbf993c5b	-1.1971544
22	0xbb5f84fc	-0.0034106364
23	0xbc1b86a1	-0.009492547
24	0x400a0df4	2.1571016
25	0xbfa0bcb8	-1.2557592
26	0xbe181c93	-0.1485465
27	0x3ed8586a	0.42254955
28	0x3ff27dc8	1.8944635
29	0x3e919ed2	0.28441483
30	0xbfe1e45a	-1.7647812
31	0xc0026467	-2.037378
32	0x3f18cddf	0.59689134
33	0x3eb4073d	0.35161772
34	0x40137811	2.3042033
35	0xbf564874	-0.83704305
36	0x3f7cfc42	0.98822415
37	0x3e8c60fa	0.27417737
38	0xbe054346	-0.13013944
39	0x3f6ee87c	0.93323493
40	0xbff34315	-1.9004847
41	0xbe789ba4	-0.24278122
42	0x3f4ad7bf	0.7923545
43	0x3fab084f	1.336191
44	0x3e41460f	0.18874381
45	0x3ef993ce	0.4874558
46	0xbf3af694	-0.730325
47	0xbf301a51	-0.68790156
48	0x3e961389	0.2931178
49	0x3fcc52a9	1.5962726
50	0x3eddce4a	0.4332145
51	0x4022f326	2.5460906
52	0x3f85e428	1.0460253
53	0x3edfc5a4	0.43705475
54	0xbd65e0bc	-0.056122527
55	0x3cc4ee43	0.024039393
56	0xbf078a17	-0.52945083
57	0xbec3bc5e	-0.3822965
58	0xbecb2fa2	-0.39684778
59	0x3e2c37bd	0.16818137
60	0xbf933dd1	-1.150324
61	0xbf00d9f2	-0.5033256
62	0x3fbdee3e	1.4838331
63	0x3f8eff22	1.117161
64	0x3fd4104e	1.6567476
65	0xbf180fb2	-0.5939895
66	0x3f0fc9e8	0.5616746
67	0x3e16d8f5	0.147312
68	0xbf64f296	-0.89432657
69	0xbf677417	-0.90411514
70	0x3ece77c0	0.40325737
71	0x3f42af30	0.76048565
72	0x3e8c2bc0	0.2737713
73	0xbebf3dce	-0.3735184
74	0xbff2c673	-1.8966812
75	0x3f1a667d	0.60312635
76	0x3f180133	0.5937683
77	0x3d66b04f	0.056320485
78	0xbfc12f6f	-1.50926
79	0xbe6e4dbb	-0.2327184
80	0xbf2031a9	-0.62575775
81	0x3e4e76d4	0.20162517
82	0x3fa557ce	1.2917421
83	0xbeb21c02	-0.34786993
84	0xbe3dfc1d	-0.18553205
85	0x3ebeab76	0.3724019
86	0x3fdf0660	1.742382
87	0xbfc7bb39	-1.5604011
88	0x3db883a7	0.09009486
89	0xc00c8d8b	-2.196139
90	0xc0532957	-3.2993982
91	0x3ec451f8	0.38343787
92	0xbfc614bc	-1.5475078
93	0xc0267810	-2.601078
94	0xbdd6f623	-0.104961656
95	0x3df7ec5c	0.12105629
96	0xbeabd8bf	-0.33563802
97	0x3fd3dd21	1.6551858
98	0xbf99c182	-1.2012179
99	0x3eba21ea	0.36354
100	0x3fca343d	1.5797192
101	0x3f52d4a5	0.8235572
102	0xbf9a539d	-1.2056767
103	0x3f217c11	0.63079935
104	0xbf16665d	-0.58749944
105	0x3f59c6c6	0.8506893
106	0x3e1ccec4	0.1531325
107	0xbf7d564b	-0.989598
108	0xbf0a33fc	-0.5398557
109	0xc019d7de	-2.4038005
110	0xbf0cf04d	-0.5505417
111	0xbf652c27	-0.89520496
112	0x3e420f18	0.1895107
113	0x3f5be188	0.8589101
114	0xc030af21	-2.760689
115	0x3f1c7b66	0.6112579
116	0x3f8c6d82	1.0970919
117	0x3ff2b3b9	1.8961097
118	0xbedf9f29	-0.43676117
119	0x401b1ba2	2.4235616
120	0x3f1aa5a5	0.60409003
121	0x3f6043c7	0.8760342
122	0xc01b0857	-2.422384
123	0xbfaed3d6	-1.3658397
124	0xbffb7f7f	-1.9648284
125	0xbe09b2df	-0.1344714
126	0xbf38d464	-0.7219908
127	0x3e871339	0.26381853
128	0x3f8db4c6	1.1070793
129	0x3e824c8f	0.25449035
130	0x3f5d741b	0.8650529
131	0xbe490c7c	-0.19633669
132	0x3eaaf6bd	0.3339137
133	0xbf6eb180	-0.93239594
134	0x3f3197bc	0.69372153
135	0x3f217d2d	0.6308163
136	0xbdcebf8a	-0.10095127
137	0x3efdf214	0.49598753
138	0xbebd573e	-0.36980623
139	0x3eedb9f6	0.4643094
140	0xbf767476	-0.96271455
141	0xbf4ce9a7	-0.80044025
142	0xbe1761e9	-0.14783444
143	0xbf7fd645	-0.99936324
144	0x3ef4fbef	0.4784846
145	0xbe5f86b6	-0.21828732
146	0xc01df8b5	-2.4683049
147	0x3f14b7d6	0.5809301
148	0x3f117c62	0.5683042
149	0x3f83d521	1.0299417
150	0x4017ebc7	2.3737657
151	0x3f72230f	0.94584745
152	0xbe4c99a3	-0.19980483
153	0x3e324787	0.17410098
154	0xbf851ff8	-1.0400381
155	0x3f26d049	0.6516157
156	0xbfb1c5aa	-1.3888447
157	0x3eab8f46	0.33507746
158	0xbf91393f	-1.1345595
159	0x3fa52f20	1.2905006
160	0xbdfd81ae	-0.1237825
161	0x3fa9cd24	1.3265729
162	0xbee99c66	-0.45627135
163	0xc011d5c9	-2.2786734
164	0x3ebbe934	0.36701357
165	0xbf697157	-0.9118857
166	0xbfae19f6	-1.3601673
167	0xbef6b710	-0.4818654
168	0xbf9beaba	-1.2181008
169	0x3f3ccba9	0.7374826
170	0x3f47c89b	0.78040475
171	0xbf3aaf4a	-0.7292372
172	0x3f976daf	1.1830348
173	0x3f434b0f	0.76286405
174	0xbedd5b87	-0.43233892
175	0xbfae48a6	-1.361592
176	0xbe8b1067	-0.27160951
177	0xbfcbca58	-1.5921125
178	0x40075159	2.11434
179	0xbeabcff4	-0.33557093
180	0xbf57c4e7	-0.84284824
181	0x3ec262be	0.3796596
182	0x3e803f37	0.2504823
183	0xbdc827f8	-0.097732484
184	0x3ec18b23	0.37801465
185	0x3fda0188	1.7031717
186	0x3e8e4016	0.2778327
187	0x3f4761c6	0.77883565
188	0xbed0c8c9	-0.40778187
189	0x3fde29f8	1.7356558
190	0xbfdc0068	-1.7187624
191	0xbf01ddff	-0.50729364
192	0x3fec8fa6	1.8481338
193	0x3f6cf090	0.9255457
194	0xbf344a92	-0.70426285
195	0xbc1235fd	-0.008924005
196	0x3ef0a7da	0.4700306
197	0x3e2c9c90	0.16856599
198	0x3e843307	0.2582018
199	0x3f19e02e	0.60107696
200	0xbf635e27	-0.8881554
201	0x3f16c639	0.58896214
202	0xbf055409	-0.5208135
203	0xbfc011e5	-1.5005461
204	0xbf016687	-0.5054707
205	0x3f840aef	1.0315837
206	0x3e454504	0.19264609
207	0x3f7dd600	0.99154663
208	0x3e45bbef	0.19309972
209	0x3fec3dfb	1.8456415
210	0xbf9a53cc	-1.2056823
211	0x3ecf3eff	0.4047775
212	0x3f8fd79d	1.1237675
213	0x3efa3a3c	0.48872554
214	0xbf0c7747	-0.548695
215	0x3ff87c7c	1.941299
216	0xbdc7b0b3	-0.097504996
217	0xbf4e48c0	-0.8057976
218	0x3c556e61	0.013026805
219	0x3f5d4acc	0.86442256
220	0xbe6b1768	-0.22958148
221	0x3f8d56ca	1.1042111
222	0x3f03668c	0.5132835
223	0xbf039687	-0.5140156
224	0xc00e9b2f	-2.2282217
225	0xbf35b0f0	-0.7097311
226	0xbf991a8f	-1.196123
227	0x400ce129	2.2012427
228	0xbf3cf751	-0.73814875
229	0x3fd6bf1b	1.6777071
230	0x3fa79ec6	1.3095329
231	0x3f4f01d4	0.80862164
232	0xbfa1e4b4	-1.264792
233	0x3e6cbe4d	0.23119469
234	0xbfb3dffc	-1.405273
235	0x3fed06fc	1.8517756
236	0xc00372ae	-2.0538745
237	0x3f927ffc	1.1445308
238	0xbed5d58f	-0.41764495
239	0x3fa83de4	1.3143888
240	0xbf2363da	-0.63824236
241	0x3efecff1	0.49768022
242	0xbf562e15	-0.83664066
243	0xbfe24eff	-1.7680358
244	0x3eeb9534	0.4601227
245	0x3fb8de13	1.4442772
246	0x3edaf9f3	0.4276882
247	0xbf2092a3	-0.6272375
248	0xc0179ea2	-2.3690572
249	0x3f4abdb6	0.79195726
250	0x3fab9b19	1.3406707
251	0xbf8bcc51	-1.0921727
252	0x3ee53e76	0.44774216
253	0xbf726e5d	-0.9469965
254	0x3fea4560	1.8302422
255	0xc0385e8e	-2.8807712

weight f4 [100, 8]
0	0x3fa94d4c	1.3226714
1	0x3dedee0f	0.11617672
2	0x3d9a0905	0.075212516
3	0x3fd05bdc	1.6278033
4	0xbef0c666	-0.47026366
5	0xbe2f1c6d	-0.17100687
6	0x3e16d1c0	0.14728451
7	0x3f576887	0.8414387
8	0x3f926378	1.1436605
9	0x3ebdf08d	0.37097588
10	0xbedebcc9	-0.43503407
11	0xbfa39c82	-1.2782137
12	0xbee7c7ca	-0.45269614
13	0xbcf5225f	-0.029923616
14	0x3f2e30be	0.68043125
15	0xbf8218ab	-1.0163778
16	0x3f461a9b	0.77384347
17	0xbfe3ff94	-1.7812371
18	0x3e3e055f	0.18556736
19	0x3eb1e140	0.34742165
20	0xbf3a76aa	-0.72837317
21	0xbfd5be6d	-1.6698738
22	0xbfbd03a2	-1.4766734
23	0xbfa53fe0	-1.2910118
24	0xbf071764	-0.52770066
25	0x3b6e1769	0.0036329872
26	0xbf1064a5	-0.5640357
27	0x3e8be743	0.27324876
28	0x3f4ec84f	0.80774397
29	0xbef8b7b3	-0.4857765
30	0x3fe9ba8b	1.8260053
31	0xbd6dfef0	-0.058104455
32	0x3f0e43c1	0.55572134
33	0xbfb21a51	-1.3914281
34	0xbf8ae33b	-1.0850595
35	0xbebc931c	-0.36830986
36	0xbf8e92da	-1.1138566
37	0x3eef833c	0.4677981
38	0xbdd8b302	-0.10581018
39	0xbe9d231a	-0.30690843
40	0x3e96f330	0.29482412
41	0xbec74b35	-0.38924566
42	0x3f40f4b0	0.75373363
43	0x3fa508a5	1.2893263
44	0x3f0bccf9	0.5460964
45	0x3f77d590	0.96810246
46	0xbec338bb	-0.3812922
47	0xbe2b4aec	-0.16727799
48	0xbfcdc3fb	-1.6075433
49	0xbeb23a94	-0.34810317
50	0x403626f5	2.8461277
51	0xbf6b813d	-0.91994077
52	0x3fcbec56	1.5931499
53	0x3f4907e6	0.7852768
54	0xbf8b5aef	-1.0887126
55	0xbfe9cd42	-1.8265765
56	0x3e210dd3	0.1572793
57	0xbf381663	-0.7190916
58	0xbef64c74	-0.48105204
59	0x3f162b7f	0.5866012
60	0xbcd55315	-0.026040593
61	0x3fcf81d8	1.62115
62	0x3ecd6732	0.40117794
63	0x4021b20e	2.5264926
64	0x3f92f0d1	1.1479741
65	0xbeee52ae	-0.46547455
66	0xbffc6f19	-1.9721404
67	0x3dc91212	0.098179
68	0x3f3dbe93	0.7411892
69	0xbf0fd79f	-0.56188387
70	0x3f9c40f1	1.2207319
71	0x3ff4b676	1.9118183
72	0x3fe16077	1.7607564
73	0xbf80a502	-1.0050356
74	0x3ff261ba	1.8936074
75	0x3ffc4b63	1.9710506
76	0xbf98c134	-1.1933961
77	0xbf9d4f9b	-1.2289919
78	0xbf80580d	-1.0026871
79	0x3f9c72cb	1.2222532
80	0xbfd2c413	-1.6466087
81	0x3f88d395	1.068957
82	0x3ea7b9fa	0.32759076
83	0x3fb8bd07	1.4432687
84	0x3f882eac	1.0639243
85	0x3fc9b089	1.5756999
86	0x3f668c6f	0.90058035
87	0xbf68911c	-0.9084642
88	0xbfcacf6f	-1.5844554
89	0x3fbbbe0f	1.4667376
90	0xbfaa10e1	-1.3286401
91	0xbf5950d1	-0.8488894
92	0xc03639a3	-2.8472679
93	0xbfa432d9	-1.2828017
94	0xbee69074	-0.45032084
95	0x3eae8ff3	0.340942
96	0xbed2907a	-0.41125852
97	0x3eff1dbe	0.4982738
98	0x3f80d932	1.0066283
99	0xc008fda9	-2.1404822
100	0x3f731127	0.9494805
101	0xbe25c3d9	-0.16187991
102	0x3f56fd36	0.8398012
103	0xbf379f7d	-0.71727735
104	0xbef7ea64	-0.48421013
105	0xbea3ac1f	-0.31967255
106	0xbfbd4d6a	-1.478925
107	0xbfbe3ae7	-1.4861726
108	0x3f80c3b8	1.0059729
109	0xbd4efdf7	-0.05053517
110	0xbe993d98	-0.29929805
111	0xbf9875cc	-1.1910949
112	0xbf321467	-0.6956238
113	0x3edd91ed	0.43275395
114	0x3e1d89e6	0.15384635
115	0x3e8b2c57	0.27182266
116	0x3f6f45c9	0.9346586
117	0x3ff661d7	1.9248608
118	0xbf483b0f	-0.78215116
119	0x3c9627c4	0.018329509
120	0x3fc79520	1.5592384
121	0xbf9465d4	-1.1593575
122	0xbf4eed44	-0.8083079
123	0x3f1cb2e7	0.61210483
124	0xbf9c2d4f	-1.2201327
125	0xbc914e48	-0.017737523
126	0xbfb4fa0f	-1.4138812
127	0x3f896096	1.0732601
128	0xbc167430	-0.009182975
129	0x3cace789	0.021106498
130	0xbe60b016	-0.21942171
131	0xbf4f318b	-0.8093497
132	0x3dd1d288	0.10245234
133	0x3eaae15e	0.33375067
134	0x3f97cad9	1.1858779
135	0x3e6f4f17	0.23370014
136	0xbeb90b3c	-0.36141384
137	0xbf756e93	-0.9587185
138	0x3f18475a	0.59483874
139	0xbf8e4119	-1.1113616
140	0x3ece0c06	0.40243548
141	0x3ea71fc0	0.3264141
142	0x3f84cfd2	1.0375922
143	0x3f6726b4	0.9029343
144	0x3f3b669b	0.7320344
145	0xbdaf5c0c	-0.085624784
146	0x3e891d8c	0.26780355
147	0xbe9700f8	-0.29492927
148	0x3f40ef60	0.7536526
149	0x3fe8442e	1.8145807
150	0xbf300b5c	-0.68767333
151	0x3ec65cf6	0.387428
152	0xbf2b1530	-0.66829205
153	0x3fcca5fa	1.5988152
154	0x3fc4aafe	1.5364683
155	0x3c94154b	0.01807656
156	0x3e779401	0.24177553
157	0x3f8d98a2	1.1062205
158	0xbf333295	-0.6999906
159	0x40249621	2.5716631
160	0x3f60ddf8	0.878387
161	0xbf3fdb66	-0.7494415
162	0xbe07ca02	-0.13260654
163	0xbdd2b7e4	-0.102889806
164	0xbe2703c9	-0.16310038
165	0xbb551abe	-0.003251716
166	0x3e2bab24	0.16764504
167	0x3f00764c	0.50180507
168	0xbe593199	-0.21210326
169	0x3f9cc3b9	1.224723
170	0x3e003a80	0.12522316
171	0xbed22918	-0.41046977
172	0xbeb7b7d2	-0.3588243
173	0x3f700f96	0.9377378
174	0xbbc3bb3e	-0.0059732487
175	0x3f31ff0a	0.69529784
176	0xbe978677	-0.29594776
177	0xbe13790e	-0.14401647
178	0x3efa22ab	0.48854575
179	0xbf200fe5	-0.62524253
180	0x3ecabdff	0.3959808
181	0x3e989067	0.2979767
182	0x3f1ce94b	0.61293477
183	0x3fbbb409	1.4664317
184	0xbf86b471	-1.0523816
185	0x3f0ccb18	0.54997396
186	0xbfd971dc	-1.6987872
187	0xbd8c625b	-0.06854697
188	0xbe8997a3	-0.26873502
189	0xbec0e65f	-0.3767576
190	0x3f824367	1.017682
191	0x3f88468b	1.0646528
192	0xc003175a	-2.0483003
193	0x3f961c79	1.1727439
194	0xbe2fb7de	-0.17159984
195	0x3ed02063	0.4064971
196	0x3f46327a	0.7742077
197	0x3eaad0dd	0.33362475
198	0xbd89a8fa	-0.06721683
199	0xbe8d2414	-0.27566588
200	0xc0144789	-2.3168662
201	0xbdfe8983	-0.12428572
202	0xbf597798	-0.8494811
203	0x3ea12c5b	0.31479153
204	0xbee8b451	-0.4545007
205	0x401122ca	2.2677484
206	0xbef66fb0	-0.48132086
207	0x3d9ac790	0.07557595
208	0xbf7c2144	-0.9848826
209	0x3fedf4e6	1.8590362
210	0xbe958070	-0.29199553
211	0x3f2a3117	0.66481155
212	0x3f57743c	0.84161735
213	0x3f93020f	1.1485003
214	0xbf8c987f	-1.0984038
215	0x3fabcf5f	1.342266
216	0xbfd72c43	-1.6810383
217	0x3e1096e2	0.14120057
218	0x3e9cc5b3	0.30619583
219	0x3f68308d	0.9069908
220	0x3f8747ce	1.0568788
221	0x3f147afc	0.5800016
222	0x3fc0e4e6	1.5069854
223	0x3e64f600	0.22359467
224	0xbf89af4e	-1.0756624
225	0xbedb08fd	-0.42780295
226	0x3e0a03f6	0.13478073
227	0xbfa97308	-1.323823
228	0x3fc83baf	1.5643214
229	0xbabc7d12	-0.0014380536
230	0x3ea8fb36	0.3300416
231	0x3fdff77b	1.74974
232	0x3f0621db	0.5239541
233	0x3fac8419	1.3477813
234	0x3f5e63f3	0.8687126
235	0xbf350c90	-0.70722294
236	0xbf25214a	-0.6450392
237	0xbe8aee86	-0.27135104
238	0x3f20f811	0.6287852
239	0xbf7612fa	-0.96122706
240	0x3fa523ba	1.2901528
241	0x3fa22fdc	1.2670856
242	0x3f17f805	0.5936282
243	0xbf16ce93	-0.5890896
244	0x3f94046a	1.1563847
245	0x3f6faf8f	0.93627256
246	0x3ed5c9d2	0.4175554
247	0x3fb91f1b	1.4462618
248	0x3fa81da4	1.3134046
249	0x40249531	2.571606
250	0x3fa2b4aa	1.2711384
251	0xbfe3686f	-1.7766246
252	0x3f243a8c	0.64151835
253	0xbf06d555	-0.5266927
254	0xbe89d9a9	-0.26923874
255	0x3eb5b5dc	0.3549031

weight f4 [32, 24]
0	0x3d8c5de8	0.06853849
1	0xbe02fecc	-0.1279251
2	0xbdb5ab7b	-0.08870598
3	0x3e324504	0.1740914
4	0x3e0b8db0	0.13628268
5	0xbcb3d570	-0.02195236
6	0x3cba2668	0.022723392
7	0x3d92d09c	0.07168695
8	0x3e2ff150	0.17181897
9	0xbe325621	-0.17415668
10	0xbe102603	-0.14077
11	0x3c7ee2d0	0.015557006
12	0xbd3a0f34	-0.045424655
13	0x3c35be70	0.011092767
14	0xbe0383b0	-0.12843204
15	0x3d9d2054	0.07672182
16	0xbd0ca100	-0.03433323
17	0x3c155ab0	0.00911586
18	0xbe31c9aa	-0.17362085
19	0x3dccf020	0.10006738
20	0xbdc78011	-0.097412236
21	0xbe20f4cd	-0.15718384
22	0x3da5feb8	0.08105224
23	0xbdb757ed	-0.089523174
24	0x3e1b9d1c	0.15196651
25	0x3dc76d64	0.097376615
26	0xbe1bed58	-0.15227258
27	0xbd0fc8d0	-0.03510362
28	0xbdfa826d	-0.12231908
29	0x3e24d5d6	0.16097197
30	0x3e45798c	0.19284648
31	0x3dd09f14	0.10186592
32	0x3e1f04ca	0.1552917
33	0x3df235d8	0.11826676
34	0x3d0b599c	0.034021005
35	0x3cde3ea8	0.027129486
36	0x3d867e94	0.065671116
37	0x3dde5c3c	0.10857436
38	0xbd6083b8	-0.054813117
39	0x3d8f9800	0.070114136
40	0xbdc2b399	-0.09506912
41	0x3bfe0ea0	0.0077532083
42	0x3dce248c	0.100655645
43	0x3d093a48	0.033502847
44	0xbe3c4b6d	-0.18388148
45	0xbe2d2347	-0.16907988
46	0x3e220468	0.15821993
47	0x3dd0d77c	0.101973504
48	0xbdc22760	-0.094801664
49	0xbb904ec0	-0.004403919
50	0xbcb36070	-0.02189657
51	0x3e0a34ec	0.1349675
52	0xbdbadf7e	-0.09124659
53	0xbe17b8f4	-0.14816648
54	0x3de10254	0.10986772
55	0xbe2343e3	-0.15943865
56	0x3d9b7268	0.07590181
57	0xbe402175	-0.18762763
58	0xbdbc7e5a	-0.09203787
59	0xbdec68cc	-0.11543426
60	0xbd9b9e08	-0.075985014
61	0xbe3e92a0	-0.1861062
62	0xbddb4bab	-0.10707792
63	0xbe10b986	-0.14133272
64	0xbe29e32a	-0.16590562
65	0xbd48a314	-0.04898365
66	0xbd90afb2	-0.07064761
67	0x3dda1f7c	0.106505364
68	0xbe2e2421	-0.1700597
69	0x3e2b0662	0.16701654
70	0x3e157a52	0.14597443
71	0x3a390200	0.0007057488
72	0x3d472988	0.04862359
73	0xbca31b20	-0.019910395
74	0x3e251640	0.16121769
75	0x3e3244e8	0.17409098
76	0xbd9069f2	-0.070514575
77	0xbc464240	-0.012100756
78	0x3e0e2936	0.13882908
79	0xbd90bbba	-0.07067056
80	0x3e399224	0.18122154
81	0x3ddebd30	0.108759284
82	0x3e4ac66a	0.19802251
83	0x3e18ef6e	0.14935085
84	0xbdc8798f	-0.097888105
85	0xbcf270b8	-0.029594764
86	0xbe147bc2	-0.14500335
87	0xbe35bd4e	-0.17747995
88	0x3e294f60	0.16534185
89	0xbe4c26e4	-0.1993671
90	0xbe19a29c	-0.15003437
91	0xbd93f69a	-0.0722477
92	0x3e48fcf2	0.19627741
93	0xbdf5384e	-0.1197363
94	0x3e4d428c	0.20044917
95	0xbdf1f358	-0.11813992
96	0xbdd42c6e	-0.10360037
97	0xbe03797e	-0.12839314
98	0xbdbd70a2	-0.09249999
99	0xbd8a04b8	-0.06739181
100	0xbd9b0892	-0.07569994
101	0xbd4b8cd8	-0.049694866
102	0xbe2f9cea	-0.17149702
103	0xbe1a76e6	-0.15084419
104	0x3e0e92d2	0.13923195
105	0x3e15bab4	0.14622003
106	0x3bed3ec0	0.0072401464
107	0xbcd445a0	-0.025912106
108	0x3e47f2da	0.19526234
109	0x3d2c89f8	0.042123765
110	0xbe4c86ad	-0.1997325
111	0xbe42a8aa	-0.19009653
112	0x3e1bb386	0.15205202
113	0xbe25f3f0	-0.16206336
114	0xbe2245d8	-0.15846956
115	0x3d975d28	0.07390815
116	0xbd89dad2	-0.0673119
117	0xbd02cc24	-0.031932965
118	0x3e37ea94	0.17960578
119	0xbdbe158d	-0.09281454
120	0x3cee6e78	0.02910541
121	0x3d785a10	0.060632765
122	0x3d7a4b58	0.06110701
123	0x3c0b4830	0.008501098
124	0xbe218aa2	-0.1577554
125	0xbd402434	-0.046909526
126	0xbdd906ff	-0.105970375
127	0x3e1abb3a	0.15110484
128	0xbd83bff2	-0.06433095
129	0x3c287b00	0.010283232
130	0xbe0c8092	-0.1372092
131	0xbe237c97	-0.15965496
132	0xbcdb60b0	-0.026779503
133	0xbe4058b1	-0.18783833
134	0x3e0e9c74	0.1392687
135	0x3d339a94	0.04384859
136	0xbe275a96	-0.1634315
137	0x3df5addc	0.11996052
138	0xbe1aa55d	-0.15102144
139	0xbe3006c0	-0.17190075
140	0x3d80b0d4	0.06283727
141	0x3dc3f818	0.095688045
142	0x3bf54a80	0.0074856877
143	0xbdd4272c	-0.10359034
144	0xbd435c3c	-0.047695383
145	0x3e24e6ca	0.16103664
146	0xbd82ec04	-0.06392673
147	0xbe102213	-0.14075498
148	0x3d195618	0.03743562
149	0xbe2448cc	-0.16043395
150	0xbc9cbf80	-0.019134283
151	0xbd3deb5c	-0.046367034
152	0xbe46cfaf	-0.19415163
153	0x3cf8ab08	0.030354992
154	0xbd459f5c	-0.04824768
155	0xbced8500	-0.028994083
156	0xbdb24261	-0.08704067
157	0xbdbef35c	-0.09323761
158	0x3e07086c	0.13186806
159	0x3e4b91fc	0.19879907
160	0x3d685bc0	0.056728125
161	0xbdc04d63	-0.0938976
162	0xbe1cc4b4	-0.15309411
163	0x3e24c690	0.1609137
164	0xbe22260e	-0.15834829
165	0x3d8569ec	0.065143436
166	0x3b9c6ae0	0.0047734827
167	0x3d9a8880	0.075455666
168	0x3df5f654	0.12009874
169	0xbd9de24a	-0.07709177
170	0x3dc32c48	0.0952993
171	0x3e45be50	0.1931088
172	0x3d8e6978	0.0695371
173	0xbddc8b9b	-0.10768815
174	0xbe20bd51	-0.15697218
175	0x3d5585a8	0.052129418
176	0xbdbb0a9d	-0.09132884
177	0xbcc11b50	-0.023572594
178	0x3d9ec8c4	0.07753137
179	0xbe3f6d15	-0.18693955
180	0x3e36aa2c	0.17838353
181	0x3e03d296	0.12873301
182	0xbcdddb00	-0.027081966
183	0x3b25ac80	0.002527982
184	0x3bd40fa0	0.006471589
185	0x3d10fbd8	0.035396427
186	0xbd976602	-0.07392503
187	0x3e22e292	0.15906742
188	0x3cda9e80	0.026686907
189	0x3a03fe00	0.00050351024
190	0x3cce1af0	0.02515933
191	0x3e25ea36	0.16202626
192	0x3e326e86	0.17424974
193	0x3e21718c	0.15765971
194	0xbe4ec353	-0.20191698
195	0xbd90213e	-0.070375904
196	0x3c9667c8	0.018360034
197	0x3d77b830	0.06047839
198	0xbcb8eb40	-0.022573113
199	0x3de83010	0.11337292
200	0xbe416b52	-0.18888596
201	0xbd541088	-0.051773578
202	0xbe399f82	-0.18127254
203	0x3d3d1ad0	0.04616815
204	0x3e193084	0.14959913
205	0xbc6621d0	-0.0140461475
206	0x3d521b10	0.05129534
207	0xbe354b9d	-0.17704625
208	0xbc6a0170	-0.014282569
209	0x3e3a362a	0.18184724
210	0x3e2a7fb8	0.16650283
211	0x3e121b84	0.14268309
212	0xbd09fd4c	-0.03368883
213	0xbe4c76b9	-0.19967164
214	0xbcd09260	-0.025460422
215	0x3cc35888	0.023845926
216	0x3d2ec898	0.04267177
217	0x3ca16770	0.019702643
218	0x3e27a8fc	0.16373056
219	0x3e1d9300	0.15388107
220	0x3e1cc724	0.15310341
221	0xbde581a4	-0.112063676
222	0xbcd4e650	-0.025988728
223	0xbe131dbb	-0.1436681
224	0xbdf2f4fd	-0.11863134
225	0xbe4ee643	-0.20205025
226	0x3c258e80	0.010104775
227	0x3df7d51c	0.12101194
228	0x3c4df730	0.012571141
229	0x3df55cc8	0.11980587
230	0xbd4dde7c	-0.050261006
231	0xbd4620c4	-0.04837109
232	0xbe397d0d	-0.1811411
233	0xbdc4188c	-0.095749944
234	0x3d4e19d8	0.050317615
235	0xbde38926	-0.11110143
236	0xbe299907	-0.16562282
237	0x3df1cd6c	0.11806759
238	0xbe3ad108	-0.18243802
239	0xbcf21a90	-0.029553682
240	0x3cdb3430	0.026758283
241	0xbc385d80	-0.011252761
242	0xbdca9530	-0.098917365
243	0x3d72b1a0	0.059251428
244	0xbe31f03a	-0.17376795
245	0x3cf11408	0.029428497
246	0x3e2e0e3a	0.16997615
247	0xbda80654	-0.08204332
248	0xbe22e1c1	-0.15906431
249	0xbde302b8	-0.11084503
250	0x3d721640	0.05910325
251	0x3e4b02b6	0.19825253
252	0x3e2d7cb4	0.16942102
253	0xbb905ce0	-0.004405603
254	0x3de99160	0.11404681
255	0x3d95acd0	0.07308352

bias f4 [32]
0	0x3d464788	0.04840806
1	0x3d2530e8	0.040329844
2	0x3da2e11c	0.079530925
3	0x3e1fa012	0.15588406
4	0xbdc1e63c	-0.09467742
5	0xbdbc9775	-0.09208576
6	0xbd80527a	-0.06265731
7	0xbe30c859	-0.17263927
8	0x3e02328c	0.12714595
9	0xbda03240	-0.078220844
10	0x3ca50a38	0.020146474
11	0xbe0b6997	-0.13614498
12	0xbe0f1d79	-0.13976087
13	0x3e2f6066	0.17126617
14	0xbe485524	-0.19563729
15	0xbdd39832	-0.10331763
16	0xbe458a91	-0.1929114
17	0xbd6ab5c0	-0.057302237
18	0x3e15e80a	0.14639297
19	0xbddf10ff	-0.108919136
20	0x3c9bc488	0.019014612
21	0xbbc0b7a0	-0.005881265
22	0xbdeb5a89	-0.114918776
23	0x3dc0f5b8	0.09421867
24	0xbd8d7406	-0.06906895
25	0xbe14254b	-0.14467351
26	0x3dfcad78	0.12337774
27	0x3dfc1870	0.123093486
28	0xbc2b9300	-0.010472059
29	0xbc1e8980	-0.009676337
30	0xbd394c28	-0.045238644
31	0x3deecfb0	0.11660707

weight f4 [32]
0	0x3f800000	1.0
1	0x3f800000	1.0
2	0x3f800000	1.0
3	0x3f800000	1.0
4	0x3f800000	1.0
5	0x3f800000	1.0
6	0x3f800000	1.0
7	0x3f800000	1.0
8	0x3f800000	1.0
9	0x3f800000	1.0
10	0x3f800000	1.0
11	0x3f800000	1.0
12	0x3f800000	1.0
13	0x3f800000	1.0
14	0x3f800000	1.0
15	0x3f800000	1.0
16	0x3f800000	1.0
17	0x3f800000	1.0
18	0x3f800000	1.0
19	0x3f800000	1.0
20	0x3f800000	1.0
21	0x3f800000	1.0
22	0x3f800000	1.0
23	0x3f800000	1.0
24	0x3f800000	1.0
25	0x3f800000	1.0
26	0x3f800000	1.0
27	0x3f800000	1.0
28	0x3f800000	1.0
29	0x3f800000	1.0
30	0x3f800000	1.0
31	0x3f800000	1.0

bias f4 [32]
0	0x00000000	0.0
1	0x00000000	0.0
2	0x00000000	0.0
3	0x00000000	0.0
4	0x00000000	0.0
5	0x00000000	0.0
6	0x00000000	0.0
7	0x00000000	0.0
8	0x00000000	0.0
9	0x00000000	0.0
10	0x00000000	0.0
11	0x00000000	0.0
12	0x00000000	0.0
13	0x00000000	0.0
14	0x00000000	0.0
15	0x00000000	0.0
16	0x00000000	0.0
17	0x00000000	0.0
18	0x00000000	0.0
19	0x00000000	0.0
20	0x00000000	0.0
21	0x00000000	0.0
22	0x00000000	0.0
23	0x00000000	0.0
24	0x00000000	0.0
25	0x00000000	0.0
26	0x00000000	0.0
27	0x00000000	0.0
28	0x00000000	0.0
29	0x00000000	0.0
30	0x00000000	0.0
31	0x00000000	0.0

running_mean f4 [32]
0	0x00000000	0.0
1	0x00000000	0.0
2	0x00000000	0.0
3	0x00000000	0.0
4	0x00000000	0.0
5	0x00000000	0.0
6	0x00000000	0.0
7	0x00000000	0.0
8	0x00000000	0.0
9	0x00000000	0.0
10	0x00000000	0.0
11	0x00000000	0.0
12	0x00000000	0.0
13	0x00000000	0.0
14	0x00000000	0.0
15	0x00000000	0.0
16	0x00000000	0.0
17	0x00000000	0.0
18	0x00000000	0.0
19	0x00000000	0.0
20	0x00000000	0.0
21	0x00000000	0.0
22	0x00000000	0.0
23	0x00000000	0.0
24	0x00000000	0.0
25	0x00000000	0.0
26	0x00000000	0.0
27	0x00000000	0.0
28	0x00000000	0.0
29	0x00000000	0.0
30	0x00000000	0.0
31	0x00000000	0.0

running_var f4 [32]
0	0x3f800000	1.0
1	0x3f800000	1.0
2	0x3f800000	1.0
3	0x3f800000	1.0
4	0x3f800000	1.0
5	0x3f800000	1.0
6	0x3f800000	1.0
7	0x3f800000	1.0
8	0x3f800000	1.0
9	0x3f800000	1.0
10	0x3f800000	1.0
11	0x3f800000	1.0
12	0x3f800000	1.0
13	0x3f800000	1.0
14	0x3f800000	1.0
15	0x3f800000	1.0
16	0x3f800000	1.0
17	0x3f800000	1.0
18	0x3f800000	1.0
19	0x3f800000	1.0
20	0x3f800000	1.0
21	0x3f800000	1.0
22	0x3f800000	1.0
23	0x3f800000	1.0
24	0x3f800000	1.0
25	0x3f800000	1.0
26	0x3f800000	1.0
27	0x3f800000	1.0
28	0x3f800000	1.0
29	0x3f800000	1.0
30	0x3f800000	1.0
31	0x3f800000	1.0

weight f4 [24, 32]
0	0xbc758d40	-0.01498729
1	0xbdb7405e	-0.08947824
2	0x3dbb5126	0.09146337
3	0xbe1f26ee	-0.15542194
4	0x3e0a30cb	0.13495176
5	0xbcaff8a8	-0.021480873
6	0x3e221c17	0.15831028
7	0x3e0e0851	0.1387036
8	0x3dedae12	0.11605467
9	0x3e272cc7	0.16325675
10	0x3d3959d4	0.045251682
11	0xbe15b363	-0.14619212
12	0x3e0d0dcb	0.13774793
13	0x3d81a2b0	0.06329858
14	0xbd0df9f4	-0.034662202
15	0x3d853e26	0.065059945
16	0xbe2b127d	-0.16706271
17	0x3d7c6528	0.061619908
18	0x3e20efe9	0.15716518
19	0x3dfc1b36	0.123098776
20	0xbd571202	-0.052507408
21	0xbc8b9658	-0.017039463
22	0xbd041ebc	-0.032255873
23	0xbdcc1f4a	-0.099669054
24	0x3df49c22	0.119438425
25	0xbdff2dc8	-0.12459904
26	0x3e1ca509	0.15297331
27	0x3df90566	0.12159233
28	0x3d6a2994	0.05716856
29	0xbe1a9b70	-0.15098357
30	0xbb5ed080	-0.0033998787
31	0xbce86590	-0.028368741
32	0x3db3819a	0.08764954
33	0xbd8e2151	-0.06939948
34	0xbc503a90	-0.012709275
35	0x3dc385c2	0.09546997
36	0x3cf1d9a8	0.029522732
37	0xbdfddb28	-0.12395316
38	0xbe07ad30	-0.1324966
39	0x3b4bedc0	0.0031117052
40	0x3e2f92cf	0.17145847
41	0xbda7e56b	-0.08198055
42	0xbd62530c	-0.05525498
43	0x3e0004a3	0.12501769
44	0x3e1fec83	0.15617566
45	0x3d79fe94	0.0610338
46	0xbd92747e	-0.07151125
47	0xbde7a25f	-0.11310267
48	0xbd81c969	-0.06337244
49	0xbe319086	-0.17340288
50	0xbe1224f1	-0.14271905
51	0x3e2dddbb	0.16979115
52	0xbe02853a	-0.12746134
53	0xbd16a2a0	-0.036776185
54	0x3e34d447	0.17659102
55	0x3d159bd8	0.036525577
56	0x3e03a90b	0.12857454
57	0xbd0665d4	-0.032811955
58	0xbdd19a5b	-0.10234519
59	0x3d055120	0.03254807
60	0xbcf69a98	-0.030103013
61	0xbd01f718	-0.031729788
62	0xbe334dd7	-0.17510162
63	0xbd741d8c	-0.05959849
64	0xbdb30274	-0.08740702
65	0x3d9e4d9e	0.07729648
66	0x3dcb032a	0.09912713
67	0x3d488b0c	0.04896073
68	0x3da788ae	0.081803665
69	0xbd5f889a	-0.054573633
70	0xbe1d395a	-0.15353909
71	0xbdf3d932	-0.11906661
72	0x3cb00ee8	0.021491483
73	0xb99ac800	-0.0002952218
74	0xbdf7e0c2	-0.12103416
75	0xbe20e15e	-0.15710971
76	0x3dd2fba6	0.103019044
77	0x3cc7be48	0.024382725
78	0xbe263a3a	-0.16233149
79	0xbe097c2f	-0.13426279
80	0x3d3f94c0	0.04677272
81	0x3e2d04e1	0.16896392
82	0x3d0a7e38	0.033811778
83	0xbda2f051	-0.07955993
84	0x3da3cbd2	0.0799786
85	0x3e3049c9	0.17215647
86	0xbc136cf0	-0.008998141
87	0xbde9cbed	-0.11415849
88	0x3e33c20f	0.17554496
89	0xbdee6430	-0.11640203
90	0xbe184022	-0.14868215
91	0xbc825288	-0.015908495
92	0x3e0174d5	0.12642224
93	0x3e2e36a1	0.17013027
94	0xbd5af810	-0.053459227
95	0x3dc2f5ba	0.09519525
96	0x3d112d84	0.035443798
97	0x3de859aa	0.11345227
98	0x3e109afd	0.14121623
99	0x3e1cbe71	0.15307023
100	0xbe106e41	-0.14104559
101	0xbca103e0	-0.019655168
102	0xbd60564e	-0.054769807
103	0xbe0fc013	-0.14038114
104	0xbe0e9e7b	-0.13927643
105	0x3d644140	0.05572629
106	0xbd63b056	-0.05558809
107	0x3e16c549	0.14723696
108	0xbbb15740	-0.0054120123
109	0x3d9bb5fe	0.07603072
110	0x3db19b42	0.08672191
111	0xbda527ed	-0.08064256
112	0xbe2c8838	-0.16848838
113	0xbd8509a2	-0.06495978
114	0xbc942e98	-0.018088624
115	0x3e19456f	0.14967893
116	0x3d515274	0.051104024
117	0x3e317455	0.17329533
118	0x3e02924f	0.12751125
119	0x3d9584a6	0.07300691
120	0x3df4c8a6	0.11952333
121	0x3d9dae9a	0.07699318
122	0x3e2cc8bf	0.16873454
123	0xbd4dc650	-0.050237954
124	0x3e2ad739	0.16683663
125	0xbc4e5140	-0.012592614
126	0x3e1f9131	0.1558273
127	0xbbe513e0	-0.0069908947
128	0xbe062062	-0.1309829
129	0xbd6627b2	-0.0561902
130	0xbdeceff6	-0.115692064
131	0x3dfbc922	0.122942224
132	0x3deebcb2	0.116570845
133	0xbda82d1d	-0.0821173
134	0xbddd2b3e	-0.107992634
135	0x3bd26560	0.0064207762
136	0x3e1023ef	0.14076208
137	0x3e2f8817	0.17141758
138	0x3d099738	0.03359148
139	0x3e2ddcb3	0.16978721
140	0xbe292ebe	-0.16521737
141	0x3da30552	0.07959999
142	0xbe26efe4	-0.16302449
143	0xbd5034b8	-0.050831527
144	0xbd6dc74e	-0.0580514
145	0x3ca8ca50	0.020604283
146	0x3e1afdb5	0.15135844
147	0xbd0cb3ac	-0.034351036
148	0xbb6db7c0	-0.0036272854
149	0x3df71182	0.12063886
150	0x3e1aff1d	0.1513638
151	0xbb893d00	-0.00418818
152	0xbd00fef4	-0.031493142
153	0xbd40bbf0	-0.04705423
154	0x3e136c3f	0.14396761
155	0x3dd6bc06	0.104850814
156	0x3939ec00	0.00017730892
157	0xbe17ae41	-0.14812566
158	0xbde32db3	-0.11092701
159	0xbe16101b	-0.14654581
160	0xbdb7e219	-0.089786716
161	0xbd555246	-0.052080415
162	0x3da6b022	0.081390634
163	0x3deaf1c2	0.11471893
164	0x3e26fd35	0.16307528
165	0x3da98e1e	0.0827906
166	0x3d93b7d6	0.07212798
167	0x3d93c806	0.07215886
168	0x3e171ca9	0.14757027
169	0x3d0fba84	0.035089985
170	0xbd9f5492	-0.077798024
171	0xbe0b0030	-0.1357429
172	0x3dd07136	0.10177843
173	0x3dfe8afa	0.124288514
174	0xbd42ec2c	-0.047588512
175	0xbdd85dce	-0.10564767
176	0x3e06dea5	0.1317087
177	0x3e25ab8b	0.1617872
178	0x3dc9cda6	0.098536775
179	0xbdf69018	-0.120392025
180	0x3d5a1b00	0.053248405
181	0x3d8df202	0.06930925
182	0xbd994f66	-0.07485847
183	0x3e25d00b	0.16192643
184	0x3d8b1876	0.06791775
185	0x3dfc241a	0.12311573
186	0x3e06fe39	0.13182916
187	0xbe089ec6	-0.13341817
188	0x3cf20ca8	0.02954705
189	0x3e0c0869	0.13675083
190	0x3a6c9500	0.0009024888
191	0x3d91d3f4	0.07120505
192	0xbd0baab8	-0.034098357
193	0xbdfda135	-0.123842634
194	0x3c622530	0.0138028115
195	0x3e10e7f5	0.14150985
196	0x3cee23e8	0.029069856
197	0x3bf6be00	0.007529974
198	0x3e29b333	0.16572265
199	0xbddd884e	-0.10817014
200	0x3c5f1410	0.013615623
201	0xbe050094	-0.12988502
202	0xbd30a770	-0.04312843
203	0xbdd3bc68	-0.1033867
204	0xbe2b89e3	-0.16751818
205	0xbe0a208f	-0.13488983
206	0xbd2cdf78	-0.042205304
207	0xbdd17815	-0.10227982
208	0xbb84f6c0	-0.004057735
209	0xbd5f01d0	-0.054445088
210	0xbd575042	-0.052566774
211	0xbcc49c38	-0.024000272
212	0x3de525f6	0.11188881
213	0x3e213369	0.15742268
214	0xbcbda568	-0.02315016
215	0xbe330fea	-0.1748654
216	0xbdbe7f7c	-0.093016595
217	0x3e332021	0.17492725
218	0xbb661dc0	-0.0035112947
219	0xbe1c2433	-0.15248184
220	0x3de07d96	0.109614536
221	0x3c02d080	0.007984281
222	0x3b8b79c0	0.004256457
223	0x3c969cf0	0.01838538
224	0x3d3ee15c	0.04660164
225	0xbe269fc3	-0.16271882
226	0xbd9caa77	-0.07649701
227	0x3e0cd547	0.13753234
228	0xbcb91928	-0.022595003
229	0x3d6c2990	0.057656825
230	0xbc0d1e70	-0.008613214
231	0xbe00e252	-0.12586334
232	0x3e2c22c1	0.16810133
233	0x3ddc4b0a	0.107565
234	0x3ba7ffe0	0.005126938
235	0x3ce8bc80	0.028410196
236	0xbc8eb4d0	-0.017420202
237	0xbdb09123	-0.08621433
238	0x3d7a46f0	0.061102808
239	0xbe0062a4	-0.12537628
240	0x3e08e765	0.1336952
241	0x3dfbf43e	0.12302445
242	0xbdea00dc	-0.11425945
243	0xbce9d898	-0.028545663
244	0xbcd73b30	-0.02627334
245	0xbcfc6ce8	-0.03081365
246	0xbe34e953	-0.17667131
247	0x3e2360b1	0.15954854
248	0xbd57d89e	-0.052696817
249	0x3da0ba0a	0.07847984
250	0x3d92d48a	0.07169445
251	0x3d9a00be	0.07519673
252	0x3e1aa50d	0.15102024
253	0x3d4e7cd4	0.050412014
254	0x3e2d8a5b	0.1694731
255	0x3be64020	0.0070266873

bias f4 [24]
0	0x3d8e2534	0.0694069
1	0x3d865f4e	0.06561147
2	0x3e238edb	0.15972464
3	0x3db5b1d6	0.0887181
4	0x3cf09278	0.029366717
5	0xbd8b03d2	-0.06787838
6	0xbde02fc5	-0.10946611
7	0x3dab8e26	0.08376722
8	0x3e028209	0.12744917
9	0xbddbbbc8	-0.10729176
10	0xbd586192	-0.052827425
11	0x3dc69ae6	0.09697513
12	0x3da1753a	0.07883687
13	0x3d3ac620	0.045599103
14	0x3e175f33	0.1478241
15	0xbdb4ab4d	-0.088217355
16	0xbdb3d4a6	-0.08780794
17	0xbe0d7a5b	-0.13816206
18	0x3d4ae07c	0.04953049
19	0xbe2f3179	-0.17108716
20	0x3c8e2700	0.017352581
21	0xbe0c9dd5	-0.13732083
22	0x3d998f4a	0.07498033
23	0x3dce5a8e	0.10075866

weight f4 [24]
0	0x3f800000	1.0
1	0x3f800000	1.0
2	0x3f800000	1.0
3	0x3f800000	1.0
4	0x3f800000	1.0
5	0x3f800000	1.0
6	0x3f800000	1.0
7	0x3f800000	1.0
8	0x3f800000	1.0
9	0x3f800000	1.0
10	0x3f800000	1.0
11	0x3f800000	1.0
12	0x3f800000	1.0
13	0x3f800000	1.0
14	0x3f800000	1.0
15	0x3f800000	1.0
16	0x3f800000	1.0
17	0x3f800000	1.0
18	0x3f800000	1.0
19	0x3f800000	1.0
20	0x3f800000	1.0
21	0x3f800000	1.0
22	0x3f800000	1.0
23	0x3f800000	1.0

bias f4 [24]
0	0x00000000	0.0
1	0x00000000	0.0
2	0x00000000	0.0
3	0x00000000	0.0
4	0x00000000	0.0
5	0x00000000	0.0
6	0x00000000	0.0
7	0x00000000	0.0
8	0x00000000	0.0
9	0x00000000	0.0
10	0x00000000	0.0
11	0x00000000	0.0
12	0x00000000	0.0
13	0x00000000	0.0
14	0x00000000	0.0
15	0x00000000	0.0
16	0x00000000	0.0
17	0x00000000	0.0
18	0x00000000	0.0
19	0x00000000	0.0
20	0x00000000	0.0
21	0x00000000	0.0
22	0x00000000	0.0
23	0x00000000	0.0

running_mean f4 [24]
0	0x00000000	0.0
1	0x00000000	0.0
2	0x00000000	0.0
3	0x00000000	0.0
4	0x00000000	0.0
5	0x00000000	0.0
6	0x00000000	0.0
7	0x00000000	0.0
8	0x00000000	0.0
9	0x00000000	0.0
10	0x00000000	0.0
11	0x00000000	0.0
12	0x00000000	0.0
13	0x00000000	0.0
14	0x00000000	0.0
15	0x00000000	0.0
16	0x00000000	0.0
17	0x00000000	0.0
18	0x00000000	0.0
19	0x00000000	0.0
20	0x00000000	0.0
21	0x00000000	0.0
22	0x00000000	0.0
23	0x00000000	0.0

running_var f4 [24]
0	0x3f800000	1.0
1	0x3f800000	1.0
2	0x3f800000	1.0
3	0x3f800000	1.0
4	0x3f800000	1.0
5	0x3f800000	1.0
6	0x3f800000	1.0
7	0x3f800000	1.0
8	0x3f800000	1.0
9	0x3f800000	1.0
10	0x3f800000	1.0
11	0x3f800000	1.0
12	0x3f800000	1.0
13	0x3f800000	1.0
14	0x3f800000	1.0
15	0x3f800000	1.0
16	0x3f800000	1.0
17	0x3f800000	1.0
18	0x3f800000	1.0
19	0x3f800000	1.0
20	0x3f800000	1.0
21	0x3f800000	1.0
22	0x3f800000	1.0
23	0x3f800000	1.0

weight f4 [10, 24]
0	0xbdf86cf9	-0.1213016
1	0xbcd95a80	-0.026532412
2	0x3de991f8	0.114047945
3	0x3dd7ebd8	0.105430305
4	0x3de49ba4	0.111624986
5	0x3d1447f4	0.036201432
6	0x3dbfe1e0	0.09369254
7	0x3e1116f0	0.14168906
8	0xbdc6dfd8	-0.097106636
9	0x3bf3aec0	0.0074366033
10	0xbdfd4d86	-0.12368302
11	0xbd166140	-0.03671384
12	0xbdaf4b78	-0.085593164
13	0xbe23d965	-0.16000898
14	0xbdaa757f	-0.08323192
15	0xbe1aff25	-0.15136392
16	0xbddad485	-0.10685066
17	0x3a115d00	0.0005545169
18	0x3e15a64e	0.14614221
19	0xbd90115c	-0.07034561
20	0xbe27502b	-0.16339175
21	0xbd367c98	-0.044552416
22	0x3e302496	0.17201456
23	0x3d804984	0.06264022
24	0xbcae1ab8	-0.021252975
25	0xbe3c3a1a	-0.18381539
26	0x3de6ae80	0.11263752
27	0x3ddac9c0	0.10683012
28	0x3e387e60	0.18016958
29	0xbd606da8	-0.054792076
30	0x3cedffc0	0.029052615
31	0x3e498688	0.19680226
32	0x3dd1e5d4	0.10248914
33	0xbe2f3e25	-0.1711355
34	0xbe4729ce	-0.19449541
35	0x3e30d8e4	0.17270237
36	0xbe129f40	-0.14318562
37	0x3d9f2dd4	0.07772413
38	0xbdfe14a9	-0.12406284
39	0xbdb944fd	-0.090463616
40	0x3c18c2b0	0.009323761
41	0xbd687898	-0.056755632
42	0xbdaec5f9	-0.08533854
43	0x3e0ed0aa	0.13946787
44	0xbe30b6af	-0.17257188
45	0xbe3bd1ae	-0.18341705
46	0x3dbd4c28	0.09243041
47	0x3e23fcc8	0.16014397
48	0xbc85a5a8	-0.016314343
49	0xbc572b30	-0.013132855
50	0x3e4bfd50	0.1992085
51	0xbd144e68	-0.036207587
52	0xbe0a8658	-0.1352781
53	0xbcb627e8	-0.022235826
54	0x3e3404aa	0.17579904
55	0x3d430300	0.047610283
56	0xbe3eaf7e	-0.18621632
57	0xbdbf3eab	-0.09338125
58	0xbe231aba	-0.15928164
59	0x3de2e238	0.11078304
60	0xbdfaa8ca	-0.12239225
61	0x3e30cab4	0.17264825
62	0x3d2686e4	0.040655985
63	0x3df26d9c	0.118373126
64	0xbd657418	-0.05601892
65	0x3e0bd28c	0.13654536
66	0xbe2fdff4	-0.17175275
67	0x3cdc4128	0.026886538
68	0x3b7b3840	0.0038333088
69	0xbdedd54c	-0.11612949
70	0xbe4b949a	-0.19880906
71	0x3e0fee98	0.1405586
72	0xbe0843a5	-0.13307054
73	0xbe39103f	-0.18072604
74	0xbe4ef376	-0.2021006
75	0x3e503db2	0.20336035
76	0xbbb64500	-0.0055624247
77	0x3e1dafda	0.15399113
78	0xbe34763a	-0.17623225
79	0xbe0aba10	-0.1354754
80	0xbe3d1458	-0.18464792
81	0xbe3d00ce	-0.18457338
82	0xbd99dbc6	-0.075126216
83	0x3a010b00	0.00049225986
84	0x3df16900	0.11787605
85	0xbdc53b8d	-0.09630499
86	0xbd65e148	-0.056123048
87	0x3cebe240	0.028794408
88	0xbd082694	-0.033239916
89	0x3e1bbee4	0.15209538
90	0xbe3a1852	-0.1817334
91	0x3dd21a28	0.10258895
92	0xbda30a70	-0.07960975
93	0x3dfbec8c	0.12300977
94	0x3dce77f8	0.10081476
95	0xbd5280f4	-0.05139251
96	0x3d1fc0e8	0.03900233
97	0xbd0c978c	-0.034324214
98	0xbd99dce8	-0.07512838
99	0xbe29013d	-0.16504379
100	0x3dae1208	0.08499533
101	0xbdef1ba7	-0.11675196
102	0xbe1e1956	-0.15439352
103	0xbcd15130	-0.025551409
104	0x3c08c6e0	0.008348197
105	0xbcbfff90	-0.023437291
106	0xbdd8ac5a	-0.105797485
107	0xbe3fa290	-0.18714356
108	0x3e36a122	0.17834905
109	0x3df0aaf4	0.11751357
110	0x3da1155c	0.07865402
111	0x3db1947c	0.08670899
112	0x3db53f38	0.08849949
113	0xbd66c3dc	-0.05633913
114	0xbcf68d08	-0.030096546
115	0x3e1511d6	0.14557585
116	0xbe2cd797	-0.16879116
117	0x3ded63a0	0.115912676
118	0x3e3184ec	0.17335862
119	0x3d98c168	0.07458764
120	0xbc4c3050	-0.0124626905
121	0x3ceabde8	0.028655007
122	0xbcde4600	-0.027132988
123	0x3e0b8966	0.13626632
124	0xbe24edb7	-0.16106306
125	0xbdd58eeb	-0.1042765
126	0xbde29937	-0.1106438
127	0x3e4b18e2	0.19833711
128	0x3c2be930	0.010492608
129	0x3e005e3a	0.12535945
130	0x3db3f910	0.08787739
131	0x3b4d7ac0	0.0031353682
132	0x3e497fb2	0.19677618
133	0xbe0b5b70	-0.136091
134	0x3e2abaa2	0.16672757
135	0xbe2be3fa	-0.16786185
136	0xbd8f7614	-0.070049435
137	0xbd98e734	-0.074659735
138	0xbd47673c	-0.048682436
139	0x3e23fe46	0.16014966
140	0x3d970124	0.073732644
141	0xba83b880	-0.0010049492
142	0x3e50b8e0	0.20383024
143	0xbd83f94e	-0.064440355
144	0x3e3c04b0	0.18361163
145	0x3e156b0c	0.14591616
146	0x3e400864	0.18753201
147	0x3da2e4c0	0.07953787
148	0x3d81c1f8	0.06335825
149	0x3e4e94f8	0.20174015
150	0x3e1751ac	0.14777249
151	0xbc4f7730	-0.012662694
152	0x3dfdeee4	0.123990804
153	0x3d9da84c	0.07698116
154	0x3c4e0580	0.0125745535
155	0xbe319aef	-0.17344259
156	0xbd195810	-0.0374375
157	0xbe353dd2	-0.17699364
158	0xbce4ed50	-0.02794519
159	0x3e430e2a	0.19048372
160	0xbd46f94c	-0.04857759
161	0xbc5cb940	-0.013471901
162	0x3de9c200	0.11413956
163	0xbe021d78	-0.12706554
164	0xbe0493e0	-0.12947035
165	0x3dba8480	0.091073036
166	0xbe2975fa	-0.1654891
167	0xbdebed05	-0.11519817
168	0xbcd10518	-0.025515124
169	0x3d302684	0.04300548
170	0x3de9114c	0.11380252
171	0xbd9dd612	-0.07706846
172	0xbe18cf5b	-0.1492285
173	0xbe481b82	-0.19541743
174	0x3afe6a80	0.0019410402
175	0xbdcd3cb4	-0.10021344
176	0xbcc4e978	-0.024037108
177	0x3de18454	0.11011568
178	0x3d957f70	0.072996974
179	0x3e355b76	0.17710671
180	0x3d264714	0.04059513
181	0xbcee3440	-0.02907765
182	0x3c8e2078	0.017349467
183	0x3de5d660	0.112225294
184	0xbcdbf290	-0.026849061
185	0x3e28ec60	0.1649642
186	0xbd76ee10	-0.060285628
187	0xbe4f9603	-0.20272069
188	0x3d4b2240	0.04959321
189	0x3c0ba270	0.008522615
190	0xbdf3c33a	-0.11902471
191	0x3e400e70	0.18755507
192	0xbdf1781e	-0.11790489
193	0xbe3235a9	-0.17403282
194	0xbc3dee60	-0.011592478
195	0xbdcbf6f5	-0.09959213
196	0xbe3dee70	-0.18547988
197	0xbdb4cc66	-0.088280484
198	0x3e0c5496	0.13704142
199	0x3e329a06	0.17441568
200	0x3e10b5d2	0.14131859
201	0x3cb19e60	0.021681964
202	0xbd134840	-0.035957575
203	0xbdff68c1	-0.12471152
204	0xbde8e6a3	-0.113721155
205	0x3d0c0c84	0.034191623
206	0x3c415e10	0.011802211
207	0x3dd99b24	0.10625294
208	0xbe15e617	-0.14638554
209	0xbda5a196	-0.08087461
210	0x3d85ddb0	0.06536424
211	0xbc9f8658	-0.01947324
212	0xbe2afc0d	-0.16697712
213	0x3e27b566	0.16377792
214	0xbe320c04	-0.17387396
215	0x3e34179e	0.17587134
216	0x3be93440	0.0071168244
217	0xba50a100	-0.0007958561
218	0x3c333270	0.010937318
219	0x3de55d2c	0.11199412
220	0xbe0f501a	-0.139954
221	0x3d86f438	0.0658955
222	0xbe2a7aad	-0.1664836
223	0xbe21c7b2	-0.15798834
224	0x3e262b68	0.16227496
225	0xbd1bbe54	-0.038023308
226	0x3c9e4d58	0.01932399
227	0x3e4eccae	0.20195267
228	0x3d0a8988	0.033822566
229	0xbe0e7318	-0.13911092
230	0xbc65cb60	-0.014025539
231	0xbdcb838d	-0.09937201
232	0x3d4cd058	0.05000338
233	0x3d7b3bc8	0.06133631
234	0xbd9d421a	-0.076786235
235	0x3e0a879a	0.1352829
236	0xbe2ea3ca	-0.17054668
237	0xbd8c2b54	-0.06844202
238	0xbd804900	-0.06263924
239	0x3dcfb2b4	0.10141507

bias f4 [10]
0	0x3d8e5760	0.06950259
1	0x3e3e6108	0.18591702
2	0xbdcf7abd	-0.10130832
3	0xbd0881e8	-0.033327013
4	0xbdf17165	-0.117892064
5	0x3e3b9bc0	0.18321133
6	0x3d552b18	0.05204305
7	0xbe4b5b76	-0.19859108
8	0xbdb21484	-0.08695319
9	0xbd774e70	-0.06037754

weight f4 [10]
0	0x3f800000	1.0
1	0x3f800000	1.0
2	0x3f800000	1.0
3	0x3f800000	1.0
4	0x3f800000	1.0
5	0x3f800000	1.0
6	0x3f800000	1.0
7	0x3f800000	1.0
8	0x3f800000	1.0
9	0x3f800000	1.0

bias f4 [10]
0	0x00000000	0.0
1	0x00000000	0.0
2	0x00000000	0.0
3	0x00000000	0.0
4	0x00000000	0.0
5	0x00000000	0.0
6	0x00000000	0.0
7	0x00000000	0.0
8	0x00000000	0.0
9	0x00000000	0.0

running_mean f4 [10]
0	0x00000000	0.0
1	0x00000000	0.0
2	0x00000000	0.0
3	0x00000000	0.0
4	0x00000000	0.0
5	0x00000000	0.0
6	0x00000000	0.0
7	0x00000000	0.0
8	0x00000000	0.0
9	0x00000000	0.0

running_var f4 [10]
0	0x3f800000	1.0
1	0x3f800000	1.0
2	0x3f800000	1.0
3	0x3f800000	1.0
4	0x3f800000	1.0
5	0x3f800000	1.0
6	0x3f800000	1.0
7	0x3f800000	1.0
8	0x3f800000	1.0
9	0x3f800000	1.0

weight f4 [1, 10]
0	0x3e9c1327	0.30483362
1	0x3e93f495	0.2889754
2	0xbe28dd83	-0.1649075
3	0xbe8aace6	-0.27085036
4	0x3e43c786	0.19119081
5	0xbcdab430	-0.026697248
6	0xbe596cfa	-0.21232978
7	0xbe5e0d36	-0.21684727
8	0x3e893fed	0.26806584
9	0xbe739918	-0.2378887
